public/pneumonia_model.onnx (onnx, 58213 bytes, 6 tensors)

fc.bias f4 [2]
0	0x3d0ba435	0.034092147
1	0x3c291c03	0.01032162

input_bias f4 [64]
0	0x3e5e946c	0.21736306
1	0x3e7863cc	0.2425682
2	0xb58d80dc	-1.0542822e-06
3	0xbf2ffae9	-0.68742234
4	0xb28e56e8	-1.6570496e-08
5	0x3e29202c	0.16516179
6	0x3e12a7d4	0.14321834
7	0xb4e6f584	-4.3019475e-07
8	0x3e93fc2a	0.28903323
9	0xb7066399	-8.010212e-06
10	0x3eb7ed65	0.35923305
11	0x3ea6f7d6	0.3261096
12	0xbe4f302c	-0.2023322
13	0xb810ec24	-3.45522e-05
14	0x3dfac2c6	0.12244181
15	0x3e375b16	0.1790584
16	0x3ebc759a	0.36808473
17	0xbefc94ea	-0.49332362
18	0xbf2e9586	-0.68196905
19	0x3f15c2d5	0.58500415
20	0x3e9669b7	0.2937753
21	0x3f12b947	0.5731396
22	0x3efcb4a0	0.49356556
23	0x3eb353ec	0.35024965
24	0x3e63408d	0.22192593
25	0x3e497245	0.19672497
26	0x3e230a64	0.15921932
27	0xbdb170c8	-0.086640894
28	0x3f7d9522	0.99055684
29	0x3c47efbf	0.012203156
30	0x3e3aa832	0.18228224
31	0x3eaaac5e	0.3333463
32	0xbd9c800a	-0.07641609
33	0x3f1179c9	0.56826454
34	0xbe46b9b5	-0.19406779
35	0x3dbdd7cc	0.092696756
36	0xb483922e	-2.450701e-07
37	0x3e8cc0ae	0.27490753
38	0xb3531abd	-4.9151584e-08
39	0x3e7f2448	0.24916184
40	0x3e729237	0.23688589
41	0x3e9eef68	0.31042027
42	0x3ee1f974	0.4413563
43	0x3e8e7bd7	0.27828857
44	0x3e9a0f19	0.30089644
45	0x3f1c8ee9	0.61155564
46	0x3ed7b720	0.421319
47	0x3ebcfe9e	0.36913007
48	0xb3baa2d7	-8.69092e-08
49	0x3e7ac99d	0.24490972
50	0x3e9c3d90	0.30515718
51	0x3f1f6f0b	0.62278813
52	0x3f343c52	0.7040454
53	0x3e9fcc49	0.31210545
54	0xbeb9d838	-0.36297774
55	0x3ec7c2f7	0.39015934
56	0x3e448cab	0.19194286
57	0x3e81525a	0.25258142
58	0xbef6f8b8	-0.48236632
59	0x3e5fe396	0.21864161
60	0x3f125d5c	0.57173705
61	0x3f0e6349	0.5562025
62	0xbea2c3a0	-0.31789875
63	0x3e7a739a	0.24458161

max_pool2d_bias f4 [64]
0	0x3e885f48	0.26635194
1	0x3e8aa023	0.270753
2	0x3f077cd1	0.5292483
3	0x3cb9ed60	0.022696197
4	0x3f1618dc	0.5863168
5	0x3e96d3da	0.29458505
6	0x3e49a3f4	0.1969145
7	0x3daa688e	0.083207235
8	0x3e9d4647	0.3071768
9	0x3eceff5d	0.40429202
10	0xbd05c422	-0.03265775
11	0x3f7504be	0.9571036
12	0xbc6af1b0	-0.014339849
13	0x3ec4ba4a	0.38423377
14	0x3eb5b3cc	0.35488737
15	0xbdb92025	-0.09039334
16	0x3f0e2c19	0.5553604
17	0xbe673d9e	-0.22582099
18	0x3fcaada1	1.5834237
19	0x3ec15f72	0.37768131
20	0x3ec3ba68	0.38228154
21	0x3f308406	0.6895145
22	0x3f51f64c	0.82016444
23	0x3eb1ed1d	0.34751216
24	0xbd6b61e0	-0.057466388
25	0x3e41e254	0.18933994
26	0xbcf2db08	-0.029645458
27	0x3f1f9e6b	0.623511
28	0x3e9a5b79	0.30147913
29	0xbe5c6f0c	-0.21526736
30	0x3e2aeda0	0.16692209
31	0x3f7a155a	0.9768883
32	0x3fda25ec	1.7042823
33	0x3f704dba	0.938686
34	0x3f851311	1.0396444
35	0x3eb3e9e0	0.3513937
36	0x3ea18276	0.31544846
37	0xbdfc10ee	-0.123079166
38	0x3fb02520	1.376133
39	0x3f641bcf	0.8910493
40	0x3e798523	0.24367194
41	0x3f029fed	0.5102528
42	0x3e93594e	0.28779072
43	0xbede7966	-0.43451995
44	0x3d84281c	0.06452963
45	0x3ec1b113	0.3783041
46	0x3f846a56	1.0344951
47	0x3f33bf8a	0.7021414
48	0x3f593471	0.84845644
49	0x3f8d9718	1.1061735
50	0x3f33339c	0.70000625
51	0x3f95f91b	1.1716646
52	0x3e51bee9	0.20482983
53	0x3f2fb954	0.68642163
54	0x3f44f305	0.7693332
55	0xbf4614dc	-0.7737558
56	0x3ee1f732	0.44133908
57	0x3d8ddc74	0.06926814
58	0x3f14702d	0.57983667
59	0x3e10dac0	0.14145947
60	0x3eec1911	0.46112874
61	0x3f4c5a0a	0.7982489
62	0xbf1c2a6f	-0.6100225
63	0x3e1fef16	0.15618548

relu_1_bias f4 [64]
0	0x3e09a218	0.1344074
1	0x3c0670f5	0.008205642
2	0xbf1da9db	-0.61587304
3	0xbee6ecff	-0.4510269
4	0x3e0ea8e7	0.13931619
5	0xbd4029ac	-0.04691474
6	0x3c8c1590	0.017100126
7	0x3e19aedc	0.1500811
8	0x3f24f8ce	0.64442146
9	0xbe22bddd	-0.1589274
10	0x3da2c0ba	0.07946916
11	0x3f19a393	0.6001522
12	0x3d966307	0.07343107
13	0xbe8d78ff	-0.27631375
14	0xbd99dc27	-0.07512694
15	0x3deb8b6c	0.11501202
16	0xbd646b6a	-0.0557665
17	0xbe6a5ad3	-0.22886209
18	0x3cada940	0.021198869
19	0xbedd83fe	-0.43264765
20	0xbf0ed9ca	-0.5580107
21	0x3e1d6551	0.1537068
22	0xbe9d7103	-0.30750284
23	0x3e67b62a	0.22628084
24	0xbd24e63c	-0.04025863
25	0x3ecd2c04	0.40072644
26	0xbe28aefe	-0.16473004
27	0xbe7b56fa	-0.24544898
28	0x3eb4e777	0.35332844
29	0x3e9075bd	0.28214827
30	0x3ea4e6f0	0.3220744
31	0x3e6def46	0.23235807
32	0xbdc0d281	-0.094151504
33	0x3e8113cc	0.25210416
34	0x3d276630	0.040868938
35	0x3d793627	0.06084266
36	0xbf148636	-0.5801729
37	0x3ed8190c	0.4220661
38	0x3eab0bdb	0.33407483
39	0x3ef037b0	0.46917486
40	0x3ede7756	0.4345042
41	0x3de5de87	0.11224084
42	0xbc972cfc	-0.018454067
43	0xbd79b9d6	-0.060968243
44	0xbe1809a6	-0.1484743
45	0xbddde704	-0.10835078
46	0x3fcd0262	1.6016352
47	0x3ce3a238	0.027787313
48	0x3e088917	0.13333546
49	0x3eb18436	0.3467118
50	0x3f3324fe	0.6997832
51	0xbd7be8de	-0.061501376
52	0x3d9859d4	0.07439008
53	0x3e37ec53	0.17961244
54	0xbee60d7d	-0.44932166
55	0x3df6a7d0	0.120437264
56	0x3eb4eced	0.3533701
57	0xbd04a698	-0.03238544
58	0x3eb65669	0.356128
59	0xbee0edaa	-0.43931323
60	0xbe169e11	-0.14708735
61	0x3e3e2576	0.18568978
62	0xbf16570e	-0.58726585
63	0x3e69ec40	0.22844028

relu_2_bias f4 [64]
0	0x3e213a00	0.15744781
1	0xbf686f51	-0.90794855
2	0x3ef43bec	0.47701967
3	0x3dc41bac	0.095755905
4	0x3f19b10b	0.6003577
5	0x3f4cd048	0.8000531
6	0x3e65d8ec	0.2244603
7	0x3dd26ded	0.10274873
8	0x3eb3ce88	0.35118508
9	0x3ed990e6	0.4249336
10	0x3ea0cf52	0.31408173
11	0x3e945d08	0.28977227
12	0x3f63da59	0.8900505
13	0x3e808956	0.2510478
14	0xbe1f10a9	-0.15533699
15	0x3e694c07	0.22782908
16	0x3e5f6ce8	0.21818888
17	0x3ee1b316	0.44081944
18	0x3f3bc234	0.73343205
19	0x3f0dea5e	0.5543574
20	0xbecef558	-0.40421557
21	0x3f3b0950	0.73061085
22	0x3f1dc4c3	0.6162836
23	0x3c56be32	0.0131068695
24	0x3d955a00	0.07292557
25	0x3f5bba9f	0.85831636
26	0x3eb645fd	0.35600272
27	0x3e943148	0.2894385
28	0xbebbe139	-0.3669527
29	0xbd8b6c03	-0.06807711
30	0xbf1517ca	-0.58239424
31	0x3f8e6e38	1.1127386
32	0x3ef10911	0.4707723
33	0x3d72be08	0.05926326
34	0x3f6ad03c	0.9172399
35	0x3f8b4d64	1.0882993
36	0xbe0cdf73	-0.13757114
37	0xbe205491	-0.1565726
38	0x3ef3f4b7	0.4764764
39	0x3f34abb6	0.7057451
40	0xbf29c3bd	-0.663143
41	0x3e105556	0.14095053
42	0xbf2b11bb	-0.6682393
43	0x3e89c590	0.2690854
44	0x3e9baefd	0.30406943
45	0xbd971cc4	-0.073785335
46	0xbe95d278	-0.29262137
47	0xbe1cac08	-0.153
48	0xbf75809a	-0.95899355
49	0x3ee306d6	0.44341153
50	0x3e03a9f6	0.12857804
51	0x3f151bec	0.5824573
52	0x3dc9f41a	0.09861012
53	0x3e2347fa	0.15945426
54	0x3f504efd	0.81370527
55	0xbd485e90	-0.048918307
56	0x3f44ca89	0.76871544
57	0x3eef7124	0.46766007
58	0x3e136e0e	0.14397451
59	0x3f97e2d7	1.1866101
60	0x3ee55b8e	0.44796413
61	0xbe284a63	-0.16434626
62	0xbf60e188	-0.87844133
63	0x3f06fec6	0.52732503

relu_3_bias f4 [64]
0	0xbe526e4e	-0.2054989
1	0x3d3dc4cc	0.04633026
2	0xbf541ad6	-0.8285345
3	0xbe3f325b	-0.18671553
4	0xbe066727	-0.13125287
5	0xbe38f0a6	-0.1806055
6	0xbe2c2032	-0.16809157
7	0xbe713298	-0.23554456
8	0x3f1b9e2c	0.60788226
9	0x3db594e4	0.08866289
10	0xbe469ab5	-0.19394954
11	0x3c9c306a	0.019066054
12	0x3e541b88	0.20713627
13	0x3f8053bb	1.0025553
14	0xbe682f26	-0.22674236
15	0xbd40692e	-0.046975307
16	0x3e99de6d	0.3005251
17	0x3e7c6452	0.24647644
18	0xbe67247e	-0.22572514
19	0xbd04d15a	-0.032426216
20	0xbd97b808	-0.07408148
21	0xbe65deb7	-0.2244824
22	0xbe0a3970	-0.13498473
23	0xbd20e6f6	-0.03928276
24	0xbe8d556f	-0.27604243
25	0x3d868ffc	0.065704316
26	0x3ccd5534	0.025065042
27	0x3e590b33	0.21195678
28	0x3f8f3c78	1.1190329
29	0x3d1c21bb	0.038118105
30	0x3e1a69b6	0.15079388
31	0x3da0ca28	0.07851058
32	0x3f5a8ada	0.8536812
33	0xbe5707f8	-0.20999134
34	0x3f222bec	0.6334827
35	0xbe101f06	-0.14074335
36	0x3f5b45b4	0.85653234
37	0x3eb79e0a	0.35862762
38	0x3f05614a	0.52101576
39	0x3eaa9753	0.33318576
40	0x3d99fe38	0.075191915
41	0xbe022844	-0.12710673
42	0xbe51ef80	-0.20501518
43	0x3eab0695	0.3340346
44	0x3f0845b4	0.5323136
45	0x3e44b090	0.19207978
46	0x3f16803c	0.5878942
47	0xbd50e3b0	-0.05099839
48	0x3eab4220	0.33448887
49	0x3ed95944	0.42450917
50	0x3e188ede	0.1489825
51	0xbd7840df	-0.06060874
52	0x3e0efeaa	0.13964334
53	0x3c14d7a0	0.009084612
54	0x3db8d7e4	0.09025553
55	0xbeac195c	-0.33613098
56	0xbe94382d	-0.2894911
57	0x3e4892cd	0.1958725
58	0x3cfb8bac	0.03070625
59	0xbebb3bec	-0.36569154
60	0xbe0901d6	-0.13379607
61	0x3ca606ac	0.020266853
62	0xbb875430	-0.004129909
63	0xbe8afab3	-0.27144393
